scratch/chrome_profile/optimization_guide_model_store/58/31A8E29053E7B742/E14207817DE38AD9/model.tflite (tflite, 195104 bytes, 9 tensors)

arith.constant f4 [320]
00000000: a4ca 47bf 4206 9f3d ebdc 7abf 7efe fbbe
00000010: 53cf 7b3d 1128 d23f 5f72 5dbf 41fb 8f3f
00000020: 1316 00bf fb5e e1be ce0c 763f 811a 14bf
00000030: c0e5 ffbf 2c4b 143f 9040 d43f 8e84 853f
00000040: ce7f 8e3f 85dc ff3f efab 38bf 17f5 48bf
00000050: 4526 f4be dc2b 383f dbc6 4abf 1716 543e
00000060: dd15 1c3e 8a24 d7bd 2521 0e3f 4625 95bf
00000070: 4762 443f 974e bfbf 54ee ff3e f8aa 4b3f
00000080: 865a 703f 3315 09c0 4a71 c0bd be3d 0040
00000090: 999f edbe 094f 90bf d95d 23c0 245a 843f
000000a0: ad53 933f 5df2 243f 098f 0f3d cb8f 9ebf
000000b0: c0f6 41bf 245a 193e 1373 123e dcf7 c8be
000000c0: 1bbe 0c3e f508 44bf dd49 f1be e0fb d93e
000000d0: 8d42 75be 5f76 1ebd 1c72 b4be c2dc f9bf
000000e0: cece 953e d14d 733f f805 30bd b45d 423f
000000f0: 9dd5 00c0 ca69 5bbe 2788 be3f e2b2 92bf
00000100: 6bc2 72be 2e80 ba3f 64c0 fd3f f18d c8bf
00000110: 6a86 dbbe 1df3 e4bf f20d ba3c b314 91be
00000120: 8a4e b8bf 9870 7c3e 3bd5 993f c8f6 01bf
00000130: 8521 1040 51ba efbf 2806 aabd ecd0 bd3f
00000140: 71a7 b53f 3fc3 9a3f cfd6 c1bf 0072 36bf
00000150: b59d 0ac0 32cc d6bf f371 74bf 534b f5bf
00000160: ccca e2be 8529 4ebf 3907 913f daa6 c83f
00000170: cc45 4fbd 577f 663f 57c3 8bbf 25e2 8bbf
00000180: ca25 d23f 5491 77be b4df bebf fca9 533f
00000190: 19b6 283f 122f 15c0 f4be 1140 d55c c1be
000001a0: 9165 ffbe 1cb8 6dbf c2eb d9be c7ba 763f
000001b0: 8aac cebf eecd e73e e058 9d3f 9e6f 4dbf
000001c0: d7a1 803f 138e ed3e 9897 6d3e 93d6 16bf
000001d0: 4907 7e3e 07a0 fb3e 0b99 ec3e 1e42 9abd
000001e0: 193f e03e 740a 9d3f 5e10 dfbe 84ea 20bf
000001f0: 1902 89be 41f6 c4bf b79f f53f 98dd d5be
00000200: 0731 9e3d cd01 27be e08c 213f 0b97 d5bf
00000210: 4fb6 dfbf 3278 5d3d 8af6 d03e 677e 8a3f
00000220: 0177 b73e 9249 803f 7940 42bf fe63 43bf
00000230: 025a babf 3af0 793f 6926 a7bf 1c53 b43f
00000240: 6bd5 44bf dbfd da3f 0faf 3a3e 8a09 2f40
00000250: 431d 97bd 4e6c b93d 245e 3a3f 3378 153e
00000260: df9a 5c3e 37df 3d3e 2002 28bd 5fa7 37bf
00000270: f9ce 76bf a49b 48bf 11d7 983e ebad 89bf
00000280: cee5 143f b95d 7f3d 718a a2be efa1 a1bf
00000290: 3b30 b9bd daf5 98be 3f46 903e 1c1b 5a3e
000002a0: f160 d0bf 2c57 8a3e 284d 913f 75c2 303f
000002b0: 7984 9b3e 6408 6dbf 477b 46be 6b90 283f
000002c0: 66dc eebe eca6 bfbf 3f2a 7cbf c865 d6be
000002d0: 4b54 b23f 2ff8 563e 3b33 93bf 95ff d9bd
000002e0: 1687 e1bf 353c cfbf c890 fcbf 10c6 e53e
000002f0: a47e 34bf ac6a 313f 9180 ab3f b831 10bf
00000300: 6cbf b43f 9881 a5bf a8ef 10be 1d0a 27c0
00000310: e822 8bbf 1176 a9bf 3c70 ae3e 99dd 0dbf
00000320: af16 b4bf fa7e 8d3e fa6f 02c0 a913 c63e
00000330: e1b9 803f f165 b23e 5937 ea3f 8113 983f
00000340: ee11 88bf e3ae 47be 3b13 423f cc26 443e
00000350: 9790 a6bf ba1d 713e d57b 103f 1310 c3bf
00000360: c59a bc3c 85fe 973f dc9c f6bd 07a1 b8bf
00000370: ac8c 0440 88b8 20bf fc56 0cbf 8467 1c3e
00000380: d2b7 7e3e 478a a4be afdc 95bf f9ee 2c3f
00000390: e80f 06c0 15a0 78bf b9c3 433f b288 0040
000003a0: 161b 0cbd 712f c73e 0f12 883e f763 873f
000003b0: 4ecd ad3f 56cd 16be f394 5e3f e5f0 28be
000003c0: 7c05 f23e cf4e c8be ade2 08bf 75ca 86bf
000003d0: d29d 933f 939c 5fbf 3c30 c3bd 7717 0340
000003e0: 2761 29bf 16ca 033f 5dfc c1bd f7dc e53e
000003f0: 198b d4bf 0f12 94bf 6a1b 91bd c622 8dbd
-0.7804358 0.077648655 -0.97993344 -0.492176 0.061477017 1.6418477 -0.8650264 1.1248552
-0.5003368 -0.44017777 0.9611329 -0.5785294 -1.9991989 0.57927203 1.6582203 1.0431077
1.1132753 1.9989172 -0.7213735 -0.7849898 -0.47685447 0.71941924 -0.7920968 0.20711552
0.15242715 -0.10505016 0.55519325 -1.1652 0.7671246 -1.4945859 0.49986517 0.7955775
0.9388813 -2.141919 -0.09396608 2.0037684 -0.46410826 -1.127412 -2.552603 1.0340009
1.1509911 0.64432317 0.03504852 -1.2387632 -0.75767136 0.14975792 0.1430171 -0.39251602
0.13744394 -0.7657617 -0.47126666 0.42574978 -0.23951168 -0.038687106 -0.3524331 -1.9520495
0.29259342 0.95040613 -0.042974442 0.7592423 -2.013038 -0.21427074 1.48853 -1.1460841
-0.23706977 1.4570367 1.9824338 -1.5668317 -0.42875987 -1.7886692 0.022711728 -0.28336105
-1.4398968 0.24652326 1.2018198 -0.50767183 2.2520459 -1.8728734 -0.083019555 1.4829383
1.4191724 1.2090834 -1.5143679 -0.712677 -2.1658757 -1.6781065 -0.9548637 -1.9163612
-0.44295347 -0.80532104 1.1330329 1.5675919 -0.050603673 0.90038055 -1.0918988 -1.0928389
1.6417782 -0.24176532 -1.4912019 0.8268125 0.6590286 -2.330998 2.2772799 -0.37766138
-0.49882177 -0.92859054 -0.4256268 0.9637875 -1.6146405 0.452743 1.2292747 -0.8024844
1.004939 0.46397457 0.2320236 -0.58921164 0.24807467 0.4914553 0.46210513 -0.07532142
0.4379814 1.2268815 -0.43567175 -0.6285784 -0.26759413 -1.5387651 1.9189366 -0.41770625
0.07724195 -0.1630928 0.63105583 -1.668672 -1.7477511 0.054069705 0.40813094 1.0819825
0.3583298 1.0022452 -0.7587963 -0.7632445 -1.4558718 0.9763218 -1.3058597 1.4087863
-0.7688815 1.710872 0.18230842 2.7349572 -0.07378628 0.090538606 0.727999 0.14596634
0.21543454 0.18542181 -0.04101765 -0.71739763 -0.96409565 -0.7836249 0.29851583 -1.07562
0.58163154 0.06234524 -0.31746247 -1.2627543 -0.09042402 -0.2987507 0.28178594 0.21299404
-1.6279584 0.27019632 1.1351671 0.6904672 0.30374506 -0.9259093 -0.19382964 0.65845364
-0.46652526 -1.4972816 -0.9850196 -0.41874528 1.3931974 0.20993112 -1.1500009 -0.106444515
-1.761935 -1.6190249 -1.9731684 0.44877672 -0.7050574 0.69303393 1.339861 -0.56325865
1.4120917 -1.2930174 -0.14153922 -2.6099923 -1.0870028 -1.3239156 0.34070003 -0.55416256
-1.4069422 0.27635938 -2.0380845 0.38686875 1.0056726 0.348434 1.8298141 1.1880952
-1.0630472 -0.19500308 0.75810593 0.19155425 -1.3012875 0.23546496 0.5643895 -1.523928
0.023023019 1.1874548 -0.12041637 -1.4424142 2.071086 -0.6278157 -0.5482023 0.15273863
0.2487481 -0.32136747 -1.1707972 0.67552143 -2.0947208 -0.97119266 0.76470524 2.0083432
-0.03420552 0.38903382 0.26576278 1.0577382 1.3578279 -0.14726767 0.8694603 -0.16498144
0.4726981 -0.39122626 -0.5347088 -1.0530535 1.1532538 -0.8734829 -0.09530684 2.0483072
-0.6616387 0.51480234 -0.094719626 0.44895145 -1.6604949 -1.1568011 -0.07085307 -0.06891398

arith.constant2 f4 [416]
00000000: 7997 373f b28b 2f3f d9ef 1a3f 512e 843e
00000010: 67b0 c0be 028e c23d 1b18 27bf a302 053e
00000020: dfe8 dd3f 1b9f 32bf 66a1 98bf 342b c63e
00000030: d7ea fb3f ec62 8dbe eecd 83be 8bfc 9d3e
00000040: d1c0 3fbe 051b 98bf 4e95 8b3f a5a8 ff3e
00000050: 0052 853e 64bd 6fbe e767 87bf 2a70 963f
00000060: d29e 6b3e 8dad 913f e578 f7be 47ea 983d
00000070: 7d89 f1be 19f3 213f 3713 ac3e 0a2f 723f
00000080: b7ac 1fbf 6699 adbf 76b5 8cbe 630c 6a3f
00000090: 3eec 323f b293 373f cc96 abbe e2d1 2c3f
000000a0: 8b00 5e3f 11d6 823f 4a62 8b3f dd3e 9f3e
000000b0: edc9 333e 4e86 d33e 9a5c 91bf d2ce 453f
000000c0: bd0a 87bf d57f 103e dabe 4b3d 1442 313f
000000d0: 05d5 fd3e fcbd 5c3f 3ce0 9a3e ef91 323f
000000e0: eca6 b23e bae5 903e 27a6 8abf 415d e3be
000000f0: a929 613f 002d 23bf b846 85be 7665 bd3e
00000100: dd99 403f 5e1a 853f 6306 4f3e 6d42 80bf
00000110: d095 dcbe c798 903d f779 423f 9316 3bbe
00000120: ceab de3e f596 03be 6a85 7bbf 29e8 503d
00000130: c816 73bf 6850 90be d700 45bf e9f7 df3e
00000140: b77e 63bf 8dd9 a2bf 570a f6be cd2d 89be
00000150: b9ef b8be 5245 d4be d7b3 2e3f a353 c43e
00000160: 30e5 9c3d 2055 083d dec4 aabf 6235 aa3f
00000170: 53c3 043f 2abc 7b3e a172 bf3f 1457 7cbe
00000180: cf37 963f 8e03 0abe 1431 543f b142 94bf
00000190: 66dd 9b3f 4aab 373f 45d2 c43e 972f 7c3f
000001a0: f285 16be 689b c03d 6189 863f eb78 55bf
000001b0: 76ab 59bf a64e 253e 0c0e 6cbf 2a3a 4dbf
000001c0: a0c4 a6bf d0e5 46be 170e f2bd 8c8a 36bf
000001d0: bc08 aa3d dc88 babf d62c 15c0 be49 8d3f
000001e0: 3679 5bbf b0a2 1b3f f950 3d3f d9a6 763f
000001f0: 1676 2e3e 4718 c43e 42b3 083f 965d 1d3e
00000200: 934a b0be 22c2 91bf f660 57bf df81 62bf
00000210: aec8 e03d 5cbe 963e a1b8 763e d628 adbf
00000220: bcf8 48bd 384a febb a3a5 1c3f ee9a 66bf
00000230: 2a28 0f3e f383 35be d9db 023e a3a9 05bf
00000240: 4f9d 253e b787 6fbf 385f 243f 8968 7ebe
00000250: ad6b bb3f 8b37 47bf 73bb c83e d04b 08bd
00000260: 6395 04bf 9980 a3bf 2d08 d73d 94ae a33f
00000270: e55a 373f 07e7 d63f 6649 993e 9d0a 00bf
00000280: 85de d83e 7718 8e3e 7a6f 13bf 0c75 edbf
00000290: d1ac 2fbf 8673 c8bf c97c aa3f 715a 083f
000002a0: f651 a43f 6b53 953f 0d64 eabe ffe4 103f
000002b0: 5442 82bc cf61 ca3e d179 383f e3ce 3dbf
000002c0: efec 72bd ef69 c43e 23db 82be 3b2e c33f
000002d0: c28d e23f 0c48 93be 1f8c dd3d 4f92 1c3f
000002e0: 4657 b53f 5b24 bbbe 8954 29bf d805 2ebe
000002f0: c2f4 93bf 1f35 9abd 78ff b13e ea12 2b3f
00000300: 8336 763f cad9 e83d ce92 203d f45b 01bf
00000310: 2f69 74bf 19a5 7cbf e8a0 b6bf 0a19 f7be
00000320: b8bb 0ebf 12c0 dcbe 8fd3 7cbe f571 193f
00000330: 0cd5 7dbe 858f b2bf a4c4 413e bbec 433f
00000340: 79ee a43e 29f8 a6bf 2853 fd3e c10d 30be
00000350: 51b3 73be fcf3 b0bf 7d50 c0bf 457c 5ebf
00000360: b852 f9be 9cbe 9f3e 9b42 26bf d448 14bf
00000370: cb21 9a3f f7c0 983f b3a3 ef3e deb4 79bf
00000380: 92d9 a3be f6a0 a9bd 4341 013e 0395 933d
00000390: 7848 663e c505 aa3f cf3a 1b3f 0b30 c63e
000003a0: ffad 143f b2e3 f6bd c736 96be a755 f43e
000003b0: df66 d3be 73a8 dd3f 7b51 01bf 4032 523f
000003c0: d8fe bebf 5d9b 313f b61a 5abf e6e1 09bf
000003d0: 0e35 3e3e 119c 0fbf bae9 97be f7fb d03e
000003e0: c935 4d3f 6e2b bdbf bea1 ccbd e68c 9ebf
000003f0: 4803 403f 2318 913f 07a6 0140 7ea9 103f
0.71715504 0.68572533 0.6052223 0.25816587 -0.37634584 0.09499742 -0.6527116 0.12989287
1.7336692 -0.69774026 -1.1924255 0.38704836 1.9681042 -0.27614534 -0.2574305 0.30856737
-0.18725897 -1.1883246 1.0904939 0.49933353 0.26039124 -0.2341209 -1.0578583 1.175298
0.23009804 1.1381088 -0.48334423 0.0746656 -0.47175208 0.6326156 0.3360841 0.94603026
-0.62372917 -1.3562438 -0.27482194 0.9142515 0.69891727 0.7170974 -0.33513486 0.67507756
0.8671958 1.0221578 1.088937 0.31102648 0.17557497 0.41313404 -1.1356385 0.7726871
-1.0550152 0.14111264 0.049742557 0.6924145 0.49576584 0.86227393 0.30249202 0.69753927
0.34892976 0.28300267 -1.0831956 -0.44407085 0.87954193 -0.6374054 -0.26030517 0.3699147
0.75234777 1.0398672 0.2021728 -1.0020272 -0.43083048 0.0706039 0.75967354 -0.1827033
0.43490452 -0.12850554 -0.9825045 0.051002655 -0.94956636 -0.28186345 -0.76954406 0.43743828
-0.88865227 -1.2722641 -0.48054764 -0.26792756 -0.36120394 -0.41459137 0.68243164 0.3834506
0.076609015 0.033284307 -1.3341329 1.3297541 0.5186054 0.24583498 1.4956857 -0.24642593
1.1735781 -0.13477919 0.8288739 -1.1582853 1.217694 0.7174574 0.38441673 0.98510116
-0.14699534 0.094046414 1.0510675 -0.8338763 -0.85027254 0.16143283 -0.92208934 -0.80166876
-1.3028755 -0.19423604 -0.11819094 -0.71305156 0.08302447 -1.4573016 -2.3308616 1.1038129
-0.8573183 0.60795116 0.7395168 0.9634834 0.17037234 0.38299772 0.53398526 0.15367731
-0.34431896 -1.138737 -0.84132326 -0.8847942 0.109757766 0.29442108 0.24093868 -1.3528087
-0.049065337 -0.0077603124 0.6119024 -0.90080154 0.13980165 -0.17726116 0.12779178 -0.5221197
0.1617329 -0.9356646 0.6420779 -0.24844564 1.4642235 -0.77819127 0.39205512 -0.033275425
-0.51790446 -1.277362 0.10499606 1.2787652 0.7162307 1.6789254 0.2993881 -0.50016195
0.4235727 0.2775304 -0.57591975 -1.8551345 -0.6862307 -1.5660255 1.3319331 0.53263
1.2837512 1.1666082 -0.45779458 0.5659942 -0.015900768 0.39527747 0.7206088 -0.7414381
-0.05930799 0.3836207 -0.25557813 1.5248483 1.7699511 -0.28765905 0.108177416 0.6116075
1.4167259 -0.36551175 -0.66144615 -0.16994417 -1.1559069 -0.07529663 0.3476522 0.66825736
0.9617693 0.11369665 0.039202504 -0.50530934 -0.95473 -0.9868942 -1.4267855 -0.4826129
-0.55755186 -0.43115288 -0.24690078 0.5993951 -0.24788302 -1.3950049 0.18922669 0.765331
0.3221319 -1.3044482 0.49477506 -0.17192747 -0.23798873 -1.3824458 -1.5024563 -0.8690837
-0.48695922 0.3120011 -0.6494538 -0.57923627 1.2041563 1.1933888 0.4680458 -0.97541606
-0.3200193 -0.08282654 0.12622552 0.07206156 0.22488582 1.3283011 0.6063661 0.3870853
0.58077997 -0.12055148 -0.29338667 0.47721598 -0.41289422 1.7317032 -0.50514954 0.82107925
-1.4921522 0.6937769 -0.8519701 -0.5386032 0.18574926 -0.56097513 -0.29670507 0.40817234
0.80160195 -1.4778879 -0.099917874 -1.2386749 0.75005007 1.1335491 2.0257585 0.56508625

arith.constant3 f4 [224]
00000000: e3f9 073f 5144 fc3d 481d 993b c7ec 8fbe
00000010: 4c6c 2cbf aa6a 053e ea68 1c3f 293e fd3e
00000020: 516f 59bd 1db5 73bf 4106 693f 0bd0 2dbe
00000030: cd88 703e 9638 813e 3aab acbe 5364 853f
00000040: 3f74 3bbd ee85 9cbe e9f0 8e3f 1ab8 143e
00000050: 43b9 f4bf 1f44 8e3f 1077 213e 865a 4d3f
00000060: 2b66 ee3e a4c2 bd3e 8839 843e 265c 7f3f
00000070: 5e07 b4be c22a 153c 9298 15bf eb6b 9bbf
00000080: 5f90 6f3e b400 063e 81be 92bd 4d0d a83f
00000090: 4a28 693f 56c4 163f 2a53 c0be 9d4b 2bbf
000000a0: aed9 d1be 10b7 dabe c0bd 813d 7592 98bf
000000b0: 4f44 18bf b76a d23e aec3 023f 4512 b43e
000000c0: 15d6 52bf f604 c2be a41d 16bf c37a 4e3e
000000d0: bc59 52bf c822 603f 3727 023f e5d8 d8bf
000000e0: c142 aabd 3359 083f a5d7 9e3f a4f6 9fbe
000000f0: 2263 f83d 1ca3 a03e 1cef 323d d035 0d3d
00000100: fa78 0c3f 8600 40bd 3282 39bf 78fc dc3f
00000110: 4919 10bf bf8b 8e3f 8b7a 61bf f0db 57bd
00000120: 5d58 7fbd e5c9 aabe 2618 50be 15e6 633f
00000130: 7fc2 0fbe 0a7f 433f 5c2f 473f 439b b1bd
00000140: c745 67bf c99d 233e bb3f 43bf 2e51 2b3f
00000150: e34d ae3f f583 c73e a99e 1fbf 33a8 73bf
00000160: 2d5f ad3e 9d04 35be 96de a7be 7bcc 36be
00000170: 6e55 bebe 1491 abbd e9bd 39be 3d67 933f
00000180: 1d3b eabe 0e15 e4be df13 933e 1ce9 903e
00000190: de05 153f 6fe0 05bf ce22 8abf 31de be3e
000001a0: 8533 b73f 3e0c 0a3f 6f71 76bf a464 0fbe
000001b0: 52ee 683f 64cf 2f3f 0799 783e 71aa e6bd
000001c0: bda0 833e aec6 ae3e bb50 ebbe 1a9a ac3e
000001d0: b1ad 863f d681 2f3e 9510 513f 3d6f 8dbf
000001e0: 342b 5cbf a401 463e 7d60 9cbe 9075 b93f
000001f0: 76e7 163f 9c2f c0be 963c 08bf 08ad 82bd
00000200: 63ae 11bf b024 29bf b90f 6a3e 8a34 a5be
00000210: 438e 893e d83a de3e cbda 5cbe 9c8a 343f
00000220: c99b a7be 26df 97bf c7b9 abbf bc23 5a3f
00000230: 603f 61be 0700 713f 6ae2 9f3d 922c 76bf
00000240: 282a 80bf 5bba 103f 589e 793f a032 293f
00000250: 63a5 fbbe bade 023f 91a6 8fbe 3a11 69bf
00000260: d32e 273f 320c c0be b124 2ebf 8038 a63e
00000270: 0748 533f d32f f6be 85fc 823f 0a1f dbbc
00000280: 114d 273f bc68 413e 0e63 dfbf b505 063e
00000290: 5602 4cbf b423 f13e f548 aabf bca6 c83c
000002a0: 6660 58bf 386f fd3e 72b3 6c3e fe6b e0bf
000002b0: 27c1 563d 2db4 b43f 4893 be3f 728e 32bf
000002c0: 921c 3e3f f62e 2fbf 4c70 ef3e 1a3d 8c3f
000002d0: 9d73 b33e 16e4 e33d 3777 ee3e e37a d1be
000002e0: 1b1e 0cbd 4fa9 523f 5f7b d73d 9d1e 33be
000002f0: 88e5 863e 390d f53e 06a5 a23f 5898 44be
00000300: 6938 203f 5459 df3e 2089 0e3f 4934 2dbe
00000310: 1faf bebe c9ed 99bf 48dd 0a3f 69d3 763f
00000320: b5f7 57bf 42ee cdbe dabd 273e 1293 e9be
00000330: cbea 86bf 0683 97bf 4480 8b3c 8816 6a3d
00000340: ac77 61bd ea8d ac3d 1654 b1bd 5f71 ebbe
00000350: 3a5b 5ebe fe46 f63e 2db7 66be 24ca 2d3f
00000360: d498 afbd 7472 b5be 71cc 263f 81fb 823d
00000370: 5f3e d33e 4e46 93bf 3cfa 9bbf f08e 973e
0.5311567 0.12317718 0.00467268 -0.28110334 -0.6735275 0.1302897 0.61097586 0.49461487
-0.053084675 -0.9519823 0.9102517 -0.16973893 0.23489685 0.25238484 -0.33724385 1.0421242
-0.045765158 -0.3057093 1.116727 0.14523354 -1.9119037 1.1114539 0.15768075 0.8021625
0.46562323 0.37062562 0.25825143 0.9974998 -0.3516187 0.009104433 -0.5843593 -1.2142309
0.23394917 0.13086206 -0.07165242 1.3129059 0.910771 0.58893335 -0.3756345 -0.6691225
-0.4098639 -0.4271779 0.0633502 -1.1919695 -0.5947923 0.41097042 0.51079834 0.3517019
-0.82357913 -0.3789441 -0.5863898 0.20164017 -0.82168174 0.8755307 0.5084109 -1.6941191
-0.083135135 0.5326111 1.240956 -0.3124286 0.12128283 0.31374443 0.043685064 0.034475148
0.54872096 -0.0468755 -0.7246429 1.7264547 -0.5628858 1.1136397 -0.8807761 -0.052699983
-0.06234013 -0.33357158 -0.20321712 0.8902295 -0.14039038 0.7636572 0.7780664 -0.08672192
-0.90340847 0.15978159 -0.7626912 0.66920745 1.3617519 0.38967863 -0.6235147 -0.95178527
0.33861676 -0.17677541 -0.32787007 -0.1785144 -0.37174553 -0.08377281 -0.18138851 1.1515881
-0.45748225 -0.44547313 0.28726098 0.28302848 0.5821208 -0.52295583 -1.0791872 0.37278894
1.4312598 0.5392493 -0.96266836 -0.14003235 0.9098865 0.6867583 0.24277125 -0.11262978
0.2570857 0.34135956 -0.4596003 0.3371132 1.0521756 0.17139372 0.8166593 -1.1049572
-0.8600342 0.19336563 -0.30542365 1.4489002 0.5894693 -0.37536323 -0.53217447 -0.06380659
-0.5690672 -0.66071606 0.2285756 -0.32266647 0.2686635 0.4340427 -0.21567838 0.70524
-0.32736042 -1.1864974 -1.341607 0.85210776 -0.21996832 0.94140667 0.07806857 -0.9616176
-1.0012865 0.56534356 0.9750724 0.6609287 -0.49149618 0.51121104 -0.28056768 -0.9104191
0.65305823 -0.37509304 -0.68024737 0.3246498 0.8253178 -0.48083362 1.0233313 -0.026748199
0.6535197 0.18887609 -1.7452104 0.13088115 -0.79691064 0.47097552 -1.3303515 0.024493568
-0.8452209 0.49498916 0.23115328 -1.7532957 0.0524303 1.4117485 1.4888697 -0.69748604
0.74262345 -0.6843103 0.46765363 1.0956147 0.35049143 0.11127488 0.4657533 -0.40914068
-0.0342084 0.82289594 0.10521578 -0.17492147 0.26346993 0.4786165 1.2706611 -0.1919874
0.62586075 0.4362284 0.55677986 -0.16914476 -0.37242982 -1.2025691 0.542439 0.96416336
-0.84362346 -0.4022084 0.16381016 -0.45620018 -1.0540403 -1.183686 0.017028935 0.057150394
-0.05504577 0.084255055 -0.08658616 -0.45984933 -0.21714488 0.48101038 -0.22530814 0.6788657
-0.085740715 -0.35438883 0.651557 0.06395627 0.41258523 -1.150583 -1.218574 0.2960124

arith.constant4 f4 [1, 30]
00000000: 18b1 aa3d 9db3 9540 64f9 0840 f1cd 6c41
00000010: 43bc 074a 3870 8947 365f 6b3b 3c23 9c3e
00000020: 2942 9442 e2f5 553f 5a8c 263f acbf 873d
00000030: 48c5 aa3e a915 793e b257 0c3e 0612 2640
00000040: 6f8a 013f 232a 6c40 0f4b 3240 3378 a444
00000050: df37 d842 2c9b 5e42 0874 8041 2983 8b42
00000060: eb3f 0f43 368a c63d d054 ca3d fe07 ca3d
00000070: da4c c93d e791 093b
0.08334559 4.6781754 2.1402216 14.800279 2.2238888e+06 70368.44 0.0035914904 0.30495632
74.12922 0.8357831 0.6505791 0.066283554 0.3335364 0.24324669 0.13705328 2.59485
0.5060186 3.6900718 2.7858312 1315.7562 108.10912 55.651535 16.056656 69.75617
143.24968 0.096943304 0.09879458 0.09864806 0.098291114 0.0020991506

arith.constant5 f4 [1, 30]
00000000: f426 4c3f 6252 e23c 1719 2b3d 5e7d 4b3b
00000010: 843c 9232 bffa 0335 fd4f 0741 4203 0b40
00000020: 8d7d 383a 4bba f63d 2ee0 ae3d 66a0 8040
00000030: 1d3e 9c3e 2585 7b3f a981 623f 6c4d 143e
00000040: 7bd2 233e 293a 343d 146b 123e e3f6 b039
00000050: cfee 663a 4946 d53b 1073 143c 6c59 8a3b
00000060: 95e8 063b a376 a040 c02a 9d40 ea0a 9e40
00000070: 8d9a 9e40 67eb cc41
0.7974694 0.027627174 0.041771974 0.0031050066 1.7024156e-08 4.9166186e-07 8.457028 2.1720738
0.00070377515 0.12047251 0.08538853 4.01958 0.3051614 0.9825004 0.88479096 0.14482659
0.1599826 0.04400078 0.1429866 0.0003375328 0.0008809389 0.006508623 0.009060636 0.0042220857
0.0020585407 5.014482 4.9114685 4.9388323 4.956366 25.614943

arith.constant6 f4 [1, 416]
00000000: c71d 00bc 3aba 6abb 206b 0bbc 5ea9 b63c
00000010: 4f55 3bbb 455c 933c 3ecb 053d f264 f33b
00000020: c799 45bd a5f3 d53c fc78 4cbc 45ec 12bd
00000030: ec0a 88bc 8b9d 42bc 4b71 c93c f762 27bb
00000040: 9087 8ebc d249 4ebc d0e3 e03b 7b92 23bc
00000050: 1f19 c8bb 9fcb 253d 9e3e d7bc fb3a 7ebc
00000060: 638c 8f3b dc45 9dbb 7fdd 0cbd e87b 43bc
00000070: 7e21 55bc fa13 88ba 9196 7f3c 465d 193d
00000080: e541 dbbb 118a 26bd 1f92 b9bc 6bae 803a
00000090: 8457 2ebc 6ed3 13bd 1542 0fbd 4418 143d
000000a0: 05de f8bc ca0f c33c 5ee8 1bbc 4600 cb3b
000000b0: 12a8 7dbc a90f eb3c 85b2 ebbb 1856 b5b9
000000c0: 75e1 d43c 6be6 0ebb 94b1 e73c f860 30bb
000000d0: 9bbb 97bc 5b8f 7f3c 8c33 3fbc 5f3e d23c
000000e0: 6229 bc3c cee4 c53a f7ac ad3c e626 413d
000000f0: 50a7 bc3b aa44 cd3c 5742 b53c fa7e 1a3c
00000100: 417d 303d 3a12 f9bb c5b7 edbc 7410 363b
00000110: 2c91 023d c8cf f3b9 16ee e93b 7370 ebbc
00000120: 7178 05bc a13c 8bbc bd78 873c d532 f83c
00000130: 226c d83c 4005 8d38 1ea2 753b 0899 b4bb
00000140: bdd0 e2bb 2720 a83c f021 5cba 22a9 2c3a
00000150: fc42 cd3c 6fb9 bbbb e31a 273c 22ba 6a3b
00000160: 7a10 813a b345 0ebc 3dd3 ff3c c739 d5bc
00000170: 5e12 ceba ab1f 00bb d1d2 f9bc 63bb 833c
00000180: ebb4 263d f6bc aebb f0ae 903b 5f2a 30bc
00000190: 63a6 c2bc d4a5 ab3b f6d6 a33c de81 87bb
000001a0: e3c2 213c 70d4 c23b 5f3c 0abc 2ddd 41bc
000001b0: 46a1 febb 284f e13b 5a0a 993c 2d79 133c
000001c0: 505e 37bb 042f 4bbb cfea 28bd 5aee 47bc
000001d0: 62ec a4bc 2c9a 8f3c 9375 813c 5e15 c0bc
000001e0: dbe5 f7bb b079 743b 36cd dabb 4b94 1e3b
000001f0: 1a3d 41bc 1f01 33bc b4a2 f5bb 1cd4 58bc
00000200: dd92 8d3b c73e 8d3c 609b ec39 c1d6 203c
00000210: 361e dbbb 27a8 15bb 5328 64bc 8e2a 193a
00000220: 4855 94bc 2f40 7b3c e0e9 87bb 4a44 b73c
00000230: 1404 2bbc 6d0f 953c f2a7 953c c4d7 8c3c
00000240: ca8b 203b f6b9 953c bd6a 313c edbc f03b
00000250: 7367 8abc 701a d83c 6b43 e23b ff47 c2bc
00000260: beeb 563c 0f84 35bc 7ab2 c9bb 54ba 873c
00000270: 5312 d83b 981d 2dbd 644b da3c c931 07bc
00000280: 1c20 c0bb 0b0e 10bd d388 04bc 594e e4bc
00000290: e35e bc3c a535 5cbb c478 32bc 5228 b53c
000002a0: d81e 88ba 14da 22bd 6e21 08bd df40 bc3c
000002b0: 07f9 00bd 1f2d 49bc 8e55 943c 06de 993a
000002c0: 405d 17bc c1a4 a1bc 17d0 c73b b617 aa3c
000002d0: 36a7 103c 13ba b43c c14c adbc 08ce 743c
000002e0: ec4e a83b 15e6 91bc 4c91 2a3a 1e01 a53b
000002f0: 1604 423c 6566 8bbc c621 8cbd d83f 41bb
00000300: 5b8b 44bc dca5 513c ff6f 9a3c 6721 4cbc
00000310: c239 fbbc 6427 2fbb e7f6 cebc f092 21bd
00000320: a413 2bbc dea2 733b d3df 7c3c 7fd9 3f3c
00000330: c79d f9bb 4f6c 10bc d5bb de3b f53d 803c
00000340: e6f4 c33b 0b18 ce3c e2da 44bb a88a 223c
00000350: 2ecd b2ba a35a a33c 20d2 54bc 1666 0e3d
00000360: 1a1f fcbb b585 e83b daed a2bc 04cf b83c
00000370: d7a0 1dbb e590 e93c 8893 793d 342e b63c
00000380: fe21 fcbc 561c 8cbc 76ab d1ba 05e6 ddbc
00000390: 3dd9 b33c 081a 473b c384 89bc f31a cd3c
000003a0: aa02 35bb 1e0b a9bc e3ad 7ebc b91f 56bc
000003b0: 3878 76bb 8252 bebc de14 e93b 11d7 2a3d
000003c0: bf63 1abd 0647 ffba ea45 ea3c ab41 e13c
000003d0: 1fdf 5ebc 7a9f e4ba 0f80 bcbc d460 a8bc
000003e0: 08ae 27bd fed4 8f3b bc68 2dbb 76e6 a83b
000003f0: 81cf cfba 9c56 05bb c751 4dbc 889a 41bc
-0.0078195995 -0.0035816566 -0.008509427 0.022297557 -0.0028584783 0.017988333 0.03266453 0.007427805
-0.048242357 0.026117155 -0.012480017 -0.035869855 -0.01660677 -0.0118783815 0.024590155 -0.0025541165
-0.017398626 -0.012590842 0.006863095 -0.009983654 -0.0061065103 0.04047739 -0.026274975 -0.015516992
0.004380749 -0.0047995877 -0.034390923 -0.011931397 -0.013008473 -0.001038193 0.015599863 0.037442468
-0.006691205 -0.040659014 -0.022652684 0.0009817606 -0.010640983 -0.036090307 -0.03497513 0.036155954
-0.030379305 0.02381124 -0.00951585 0.006195101 -0.015481966 0.02869399 -0.007192912 -0.00034587155
0.025986413 -0.002180482 0.028282918 -0.0026913267 -0.018522074 0.015598143 -0.011670005 0.025664506
0.022968952 0.0015098096 0.02120064 0.047156237 0.00575725 0.025057156 0.02212636 0.009429688
0.0430882 -0.0076010497 -0.029018292 0.0027780803 0.031876728 -0.0004650338 0.0071389778 -0.028740143
-0.008146391 -0.016996684 0.016537065 0.030297676 0.02641875 6.724382e-05 0.0037480663 -0.005511407
-0.006921856 0.020523144 -0.0008397391 0.0006586482 0.025056355 -0.0057288925 0.010199281 0.003581651
0.0009846829 -0.00868361 0.031228656 -0.026028527 -0.0015722027 -0.0019550126 -0.030496033 0.016080564
0.04069988 -0.0053325845 0.0044153854 -0.01075229 -0.02376098 0.005238274 0.019999962 -0.0041353544
0.009873125 0.0059457347 -0.008437245 -0.011832518 -0.00777069 0.0068758912 0.018681694 0.0090010585
-0.0027979799 -0.0031003365 -0.041239556 -0.012202824 -0.020132247 0.01752957 0.015803134 -0.023447689
-0.0075652427 0.0037303977 -0.006677295 0.0024197276 -0.011794353 -0.01092556 -0.0074962024 -0.013234165
0.004320486 0.017241849 0.0004512919 0.009816826 -0.006686951 -0.0022835822 -0.01392563 0.0005842828
-0.018107072 0.015335127 -0.004147753 0.02237143 -0.010437984 0.018195832 0.01826856 0.017192729
0.0024497383 0.01827715 0.010828671 0.0073467405 -0.016895032 0.026379794 0.0069050095 -0.023715971
0.013117729 -0.0110788485 -0.0061553093 0.01656834 0.0065939813 -0.04226455 0.026647277 -0.008251616
-0.0058632027 -0.035169642 -0.008089262 -0.02786939 0.022994464 -0.003360131 -0.010893051 0.022113953
-0.0010385169 -0.039758757 -0.033235006 0.022980152 -0.03148749 -0.012278824 0.018107202 0.0011739142
-0.009238541 -0.019731881 0.0060978043 0.02076326 0.008828929 0.022061383 -0.021154763 0.0149417
0.0051363613 -0.017809907 0.0006506636 0.0050355336 0.0118417945 -0.017016599 -0.06842379 -0.0029487517
-0.011996116 0.012795892 0.018852232 -0.012459136 -0.03066719 -0.002672636 -0.025264217 -0.03944677
-0.010441694 0.0037175934 0.015434223 0.01170957 -0.0076176855 -0.008814885 0.0067972937 0.015654543
0.005980122 0.025157949 -0.003003769 0.009920754 -0.001364147 0.01994068 -0.012989551 0.034765325
-0.0076941373 0.0070960172 -0.019888807 0.02255965 -0.0024052167 0.028511474 0.060931712 0.022238828
-0.030777927 -0.017103355 -0.0015996534 -0.02708722 0.021954173 0.0030380506 -0.016786939 0.025037264
-0.0027619996 -0.020635184 -0.0155443875 -0.013069087 -0.0037608277 -0.023232702 0.0071130833 0.04170901
-0.03769278 -0.0019476123 0.02859779 0.027497133 -0.013603001 -0.0017442547 -0.023010282 -0.020553984
-0.040937454 0.0043894043 -0.0026460132 0.005154426 -0.0015854688 -0.0020345813 -0.012531704 -0.011816628

tfl.pseudo_qconst i1 [416, 224]
00000000: 14f1 b1ee d3fb 002e ba81 14f9 1ef8 b610
00000010: d8fe e926 d6f3 1201 36ec 0345 cfed e9d0
00000020: 1bc3 f112 32de faa5 ea0c 0c00 fdd2 f72c
00000030: eded cec3 87de 02e0 0405 35ff bff9 cdcf
00000040: 34f9 21fb f84b c026 b32c de29 02ec 031a
00000050: 2e9f d217 1f1a eb13 dab0 34c2 14d1 1dfe
00000060: 41e4 feac 44ab e4fa cc35 9801 4240 f762
00000070: e60d 2cff 0ffb 3feb 483e 06fe f9bf de04
00000080: e627 1dfb f600 ef14 b202 e84c 7549 1e9b
00000090: f8da 6bd9 f93b f0d5 040d a0b4 17c8 b9fe
000000a0: 14c8 180f fe12 0ef9 321f ebe7 fe04 a0cc
000000b0: f20c f669 f55d 15c1 04fb 1304 ccfa 2512
000000c0: 1e2c d4d4 bed6 1ff9 d1bf f540 c8c6 2bc4
000000d0: f010 0210 2e1a 38df aff7 f611 50b0 20c9
000000e0: dae5 c201 d3d4 f320 b7eb 20fd 0800 e724
000000f0: 18b1 021b fc01 1e9a 3d1c f026 ebd8 f2bc
20 -15 -79 -18 -45 -5 0 46
-70 -127 20 -7 30 -8 -74 16
-40 -2 -23 38 -42 -13 18 1
54 -20 3 69 -49 -19 -23 -48
27 -61 -15 18 50 -34 -6 -91
-22 12 12 0 -3 -46 -9 44
-19 -19 -50 -61 -121 -34 2 -32
4 5 53 -1 -65 -7 -51 -49
52 -7 33 -5 -8 75 -64 38
-77 44 -34 41 2 -20 3 26
46 -97 -46 23 31 26 -21 19
-38 -80 52 -62 20 -47 29 -2
65 -28 -2 -84 68 -85 -28 -6
-52 53 -104 1 66 64 -9 98
-26 13 44 -1 15 -5 63 -21
72 62 6 -2 -7 -65 -34 4
-26 39 29 -5 -10 0 -17 20
-78 2 -24 76 117 73 30 -101
-8 -38 107 -39 -7 59 -16 -43
4 13 -96 -76 23 -56 -71 -2
20 -56 24 15 -2 18 14 -7
50 31 -21 -25 -2 4 -96 -52
-14 12 -10 105 -11 93 21 -63
4 -5 19 4 -52 -6 37 18
30 44 -44 -44 -66 -42 31 -7
-47 -65 -11 64 -56 -58 43 -60
-16 16 2 16 46 26 56 -33
-81 -9 -10 17 80 -80 32 -55
-38 -27 -62 1 -45 -44 -13 32
-73 -21 32 -3 8 0 -25 36
24 -79 2 27 -4 1 30 -102
61 28 -16 38 -21 -40 -14 -68

tfl.pseudo_qconst1 i1 [224, 320]
00000000: 21ea 191e b106 0ddc 0601 0f04 02cc 0d16
00000010: 18f4 c0f7 151e 1f0d f5f3 e8dc 5f0a 2048
00000020: 0e09 acf3 f7e2 a01a eb2f e5e9 001d 3c36
00000030: 0112 bbf8 e5b4 fef5 12fc 1a00 0b2f 19f0
00000040: fe15 f5ae d813 1fdf dafc eeba 4196 f2f4
00000050: f7eb fb15 dee0 d2ae 0503 c1fb 22f9 ead5
00000060: f92f cd29 1d20 6ff8 22d1 b600 e12d ea04
00000070: dcfa ebec f924 5204 0c21 2d25 01a2 33f3
00000080: 2b1c 0ff7 d5ec 2414 beef e30c e40a f218
00000090: ed10 e32a 2b10 f3fd 43e9 a0eb 30a3 f4f0
000000a0: 2005 350a efeb f2f4 11dd 16fe 03ce e636
000000b0: fef4 f5d0 24f1 06f8 1dd7 e800 dd22 df29
000000c0: ec08 3bfe 2f28 07fb d00e bdfe 2a1c 7f0f
000000d0: d814 1208 2a16 fbea 4cf6 fd01 ffdc edf8
000000e0: 2c18 1c07 d2f1 f12a 1b1c c403 e219 d2ef
000000f0: d9f7 22d6 50e7 27d9 d118 10fa 0ce1 2c01
33 -22 25 30 -79 6 13 -36
6 1 15 4 2 -52 13 22
24 -12 -64 -9 21 30 31 13
-11 -13 -24 -36 95 10 32 72
14 9 -84 -13 -9 -30 -96 26
-21 47 -27 -23 0 29 60 54
1 18 -69 -8 -27 -76 -2 -11
18 -4 26 0 11 47 25 -16
-2 21 -11 -82 -40 19 31 -33
-38 -4 -18 -70 65 -106 -14 -12
-9 -21 -5 21 -34 -32 -46 -82
5 3 -63 -5 34 -7 -22 -43
-7 47 -51 41 29 32 111 -8
34 -47 -74 0 -31 45 -22 4
-36 -6 -21 -20 -7 36 82 4
12 33 45 37 1 -94 51 -13
43 28 15 -9 -43 -20 36 20
-66 -17 -29 12 -28 10 -14 24
-19 16 -29 42 43 16 -13 -3
67 -23 -96 -21 48 -93 -12 -16
32 5 53 10 -17 -21 -14 -12
17 -35 22 -2 3 -50 -26 54
-2 -12 -11 -48 36 -15 6 -8
29 -41 -24 0 -35 34 -33 41
-20 8 59 -2 47 40 7 -5
-48 14 -67 -2 42 28 127 15
-40 20 18 8 42 22 -5 -22
76 -10 -3 1 -1 -36 -19 -8
44 24 28 7 -46 -15 -15 42
27 28 -60 3 -30 25 -46 -17
-39 -9 34 -42 80 -25 39 -39
-47 24 16 -6 12 -31 44 1

tfl.pseudo_qconst2 i1 [320, 30]
00000000: d37a 052d 32f0 db0a f93f f0ac e407 ce1b
00000010: b5b9 0481 f032 1ff3 e9c4 cec9 c5f9 f7e7
00000020: ef15 1e17 1ce8 edfa 2105 f7e6 0704 811d
00000030: f504 0814 d4e7 e7f6 fbf2 ffeb 5349 1ef4
00000040: 21d2 3110 1a44 cf1f 1a42 2c20 7f40 4531
00000050: e41a edfa ff04 080b 09f5 cec4 fa21 da16
00000060: 1731 7f07 392d 23f2 dfd0 d603 c2ac 29d6
00000070: 4643 2ffe fc03 09e0 0b74 171c ebc0 5eda
00000080: 3533 25a6 5909 0f3a 8153 44ec 2925 efe4
00000090: e11d 2617 1e15 a137 fcc1 18c6 f216 c53f
000000a0: 1ed7 0a0e 124e ce7f 5400 ee1a e98d 92f1
000000b0: 0110 0608 7132 49cd 7f19 aaf0 3652 050a
000000c0: 07be 459a 1353 b4ca 6ba7 1218 2beb fefd
000000d0: f2f7 3004 f915 fee6 ed00 0cf9 d306 1713
000000e0: 10ee 7ff2 fefb 1214 09fc fa05 0809 0405
000000f0: 5ad8 c9ea fcea 15ec fbe3 81b5 ed3e f2d9
-45 122 5 45 50 -16 -37 10
-7 63 -16 -84 -28 7 -50 27
-75 -71 4 -127 -16 50 31 -13
-23 -60 -50 -55 -59 -7 -9 -25
-17 21 30 23 28 -24 -19 -6
33 5 -9 -26 7 4 -127 29
-11 4 8 20 -44 -25 -25 -10
-5 -14 -1 -21 83 73 30 -12
33 -46 49 16 26 68 -49 31
26 66 44 32 127 64 69 49
-28 26 -19 -6 -1 4 8 11
9 -11 -50 -60 -6 33 -38 22
23 49 127 7 57 45 35 -14
-33 -48 -42 3 -62 -84 41 -42
70 67 47 -2 -4 3 9 -32
11 116 23 28 -21 -64 94 -38
53 51 37 -90 89 9 15 58
-127 83 68 -20 41 37 -17 -28
-31 29 38 23 30 21 -95 55
-4 -63 24 -58 -14 22 -59 63
30 -41 10 14 18 78 -50 127
84 0 -18 26 -23 -115 -110 -15
1 16 6 8 113 50 73 -51
127 25 -86 -16 54 82 5 10
7 -66 69 -102 19 83 -76 -54
107 -89 18 24 43 -21 -2 -3
-14 -9 48 4 -7 21 -2 -26
-19 0 12 -7 -45 6 23 19
16 -18 127 -14 -2 -5 18 20
9 -4 -6 5 8 9 4 5
90 -40 -55 -22 -4 -22 21 -20
-5 -29 -127 -75 -19 62 -14 -39
